
Basic Specs
----------------------------------------------------
Input Size: torch.Size([64, 512])


Model Specs: 
TransformerClass(
  (embedding): Embedding(74, 512)
  (positional_encoding): PositionalEncoding(
    (dropout): Dropout(p=0.1, inplace=False)
  )
  (blocks): Sequential(
    (0): TransformerBlock(
      (multi_atten): MultiHeadAttention(
        (heads): ModuleList(
          (0-7): 8 x Head(
            (key): Linear(in_features=512, out_features=64, bias=False)
            (query): Linear(in_features=512, out_features=64, bias=False)
            (value): Linear(in_features=512, out_features=64, bias=False)
            (dropout): Dropout(p=0.1, inplace=False)
          )
        )
        (projection): Linear(in_features=512, out_features=512, bias=True)
        (dropout): Dropout(p=0.1, inplace=False)
      )
      (feedforward): FeedForward(
        (fflayer): Sequential(
          (0): Linear(in_features=512, out_features=2048, bias=True)
          (1): ReLU()
          (2): Linear(in_features=2048, out_features=512, bias=True)
          (3): Dropout(p=0.2, inplace=False)
        )
      )
      (layernorm1): LayerNorm((512,), eps=1e-05, elementwise_affine=True)
      (layernorm2): LayerNorm((512,), eps=1e-05, elementwise_affine=True)
    )
    (1): TransformerBlock(
      (multi_atten): MultiHeadAttention(
        (heads): ModuleList(
          (0-7): 8 x Head(
            (key): Linear(in_features=512, out_features=64, bias=False)
            (query): Linear(in_features=512, out_features=64, bias=False)
            (value): Linear(in_features=512, out_features=64, bias=False)
            (dropout): Dropout(p=0.1, inplace=False)
          )
        )
        (projection): Linear(in_features=512, out_features=512, bias=True)
        (dropout): Dropout(p=0.1, inplace=False)
      )
      (feedforward): FeedForward(
        (fflayer): Sequential(
          (0): Linear(in_features=512, out_features=2048, bias=True)
          (1): ReLU()
          (2): Linear(in_features=2048, out_features=512, bias=True)
          (3): Dropout(p=0.2, inplace=False)
        )
      )
      (layernorm1): LayerNorm((512,), eps=1e-05, elementwise_affine=True)
      (layernorm2): LayerNorm((512,), eps=1e-05, elementwise_affine=True)
    )
    (2): TransformerBlock(
      (multi_atten): MultiHeadAttention(
        (heads): ModuleList(
          (0-7): 8 x Head(
            (key): Linear(in_features=512, out_features=64, bias=False)
            (query): Linear(in_features=512, out_features=64, bias=False)
            (value): Linear(in_features=512, out_features=64, bias=False)
            (dropout): Dropout(p=0.1, inplace=False)
          )
        )
        (projection): Linear(in_features=512, out_features=512, bias=True)
        (dropout): Dropout(p=0.1, inplace=False)
      )
      (feedforward): FeedForward(
        (fflayer): Sequential(
          (0): Linear(in_features=512, out_features=2048, bias=True)
          (1): ReLU()
          (2): Linear(in_features=2048, out_features=512, bias=True)
          (3): Dropout(p=0.2, inplace=False)
        )
      )
      (layernorm1): LayerNorm((512,), eps=1e-05, elementwise_affine=True)
      (layernorm2): LayerNorm((512,), eps=1e-05, elementwise_affine=True)
    )
    (3): TransformerBlock(
      (multi_atten): MultiHeadAttention(
        (heads): ModuleList(
          (0-7): 8 x Head(
            (key): Linear(in_features=512, out_features=64, bias=False)
            (query): Linear(in_features=512, out_features=64, bias=False)
            (value): Linear(in_features=512, out_features=64, bias=False)
            (dropout): Dropout(p=0.1, inplace=False)
          )
        )
        (projection): Linear(in_features=512, out_features=512, bias=True)
        (dropout): Dropout(p=0.1, inplace=False)
      )
      (feedforward): FeedForward(
        (fflayer): Sequential(
          (0): Linear(in_features=512, out_features=2048, bias=True)
          (1): ReLU()
          (2): Linear(in_features=2048, out_features=512, bias=True)
          (3): Dropout(p=0.2, inplace=False)
        )
      )
      (layernorm1): LayerNorm((512,), eps=1e-05, elementwise_affine=True)
      (layernorm2): LayerNorm((512,), eps=1e-05, elementwise_affine=True)
    )
    (4): TransformerBlock(
      (multi_atten): MultiHeadAttention(
        (heads): ModuleList(
          (0-7): 8 x Head(
            (key): Linear(in_features=512, out_features=64, bias=False)
            (query): Linear(in_features=512, out_features=64, bias=False)
            (value): Linear(in_features=512, out_features=64, bias=False)
            (dropout): Dropout(p=0.1, inplace=False)
          )
        )
        (projection): Linear(in_features=512, out_features=512, bias=True)
        (dropout): Dropout(p=0.1, inplace=False)
      )
      (feedforward): FeedForward(
        (fflayer): Sequential(
          (0): Linear(in_features=512, out_features=2048, bias=True)
          (1): ReLU()
          (2): Linear(in_features=2048, out_features=512, bias=True)
          (3): Dropout(p=0.2, inplace=False)
        )
      )
      (layernorm1): LayerNorm((512,), eps=1e-05, elementwise_affine=True)
      (layernorm2): LayerNorm((512,), eps=1e-05, elementwise_affine=True)
    )
    (5): TransformerBlock(
      (multi_atten): MultiHeadAttention(
        (heads): ModuleList(
          (0-7): 8 x Head(
            (key): Linear(in_features=512, out_features=64, bias=False)
            (query): Linear(in_features=512, out_features=64, bias=False)
            (value): Linear(in_features=512, out_features=64, bias=False)
            (dropout): Dropout(p=0.1, inplace=False)
          )
        )
        (projection): Linear(in_features=512, out_features=512, bias=True)
        (dropout): Dropout(p=0.1, inplace=False)
      )
      (feedforward): FeedForward(
        (fflayer): Sequential(
          (0): Linear(in_features=512, out_features=2048, bias=True)
          (1): ReLU()
          (2): Linear(in_features=2048, out_features=512, bias=True)
          (3): Dropout(p=0.2, inplace=False)
        )
      )
      (layernorm1): LayerNorm((512,), eps=1e-05, elementwise_affine=True)
      (layernorm2): LayerNorm((512,), eps=1e-05, elementwise_affine=True)
    )
    (6): TransformerBlock(
      (multi_atten): MultiHeadAttention(
        (heads): ModuleList(
          (0-7): 8 x Head(
            (key): Linear(in_features=512, out_features=64, bias=False)
            (query): Linear(in_features=512, out_features=64, bias=False)
            (value): Linear(in_features=512, out_features=64, bias=False)
            (dropout): Dropout(p=0.1, inplace=False)
          )
        )
        (projection): Linear(in_features=512, out_features=512, bias=True)
        (dropout): Dropout(p=0.1, inplace=False)
      )
      (feedforward): FeedForward(
        (fflayer): Sequential(
          (0): Linear(in_features=512, out_features=2048, bias=True)
          (1): ReLU()
          (2): Linear(in_features=2048, out_features=512, bias=True)
          (3): Dropout(p=0.2, inplace=False)
        )
      )
      (layernorm1): LayerNorm((512,), eps=1e-05, elementwise_affine=True)
      (layernorm2): LayerNorm((512,), eps=1e-05, elementwise_affine=True)
    )
    (7): TransformerBlock(
      (multi_atten): MultiHeadAttention(
        (heads): ModuleList(
          (0-7): 8 x Head(
            (key): Linear(in_features=512, out_features=64, bias=False)
            (query): Linear(in_features=512, out_features=64, bias=False)
            (value): Linear(in_features=512, out_features=64, bias=False)
            (dropout): Dropout(p=0.1, inplace=False)
          )
        )
        (projection): Linear(in_features=512, out_features=512, bias=True)
        (dropout): Dropout(p=0.1, inplace=False)
      )
      (feedforward): FeedForward(
        (fflayer): Sequential(
          (0): Linear(in_features=512, out_features=2048, bias=True)
          (1): ReLU()
          (2): Linear(in_features=2048, out_features=512, bias=True)
          (3): Dropout(p=0.2, inplace=False)
        )
      )
      (layernorm1): LayerNorm((512,), eps=1e-05, elementwise_affine=True)
      (layernorm2): LayerNorm((512,), eps=1e-05, elementwise_affine=True)
    )
  )
  (final_layernorm): LayerNorm((512,), eps=1e-05, elementwise_affine=True)
  (final_linear): Linear(in_features=512, out_features=74, bias=True)
)





Training Information
--------------------------------------------------------------------------------
Training Begin
----------------------------------------------------
There are 1 epochs, and for each epoch, there are 7812 batches of training data
Total Training Steps: 7812
Total Displaying Information: 16
Optimizer name - AdamW learning rate: 0.0005
…
